autoencoder_model.pt (torch, 893837 bytes, 12 tensors)

encoder.0.weight f4 [128, 784]
0	0x3d22ec19	0.03977594
1	0xbb9f62a6	-0.0048640547
2	0x3bc05984	0.005870046
3	0x3cfb97ca	0.030712027
4	0xbc0064e4	-0.007836554
5	0x3bb22f03	0.005437733
6	0x3bd9fbda	0.0066523375
7	0x3ce138de	0.027492937
8	0x3d00fef4	0.031493142
9	0x3cc39c91	0.023878368
10	0x3c1397e2	0.00900838
11	0xbcd7d516	-0.026346724
12	0x3c974ff4	0.018470742
13	0x3cd35a52	0.025799904
14	0x3ca84928	0.020542696
15	0xbcd9f41c	-0.026605658
16	0x3cfe7c3a	0.031065095
17	0xbbfe4e07	-0.0077607664
18	0x3c45fc80	0.0120841265
19	0xbb57025b	-0.00328078
20	0x3c88bfdb	0.016693046
21	0x3c9ed94a	0.01939072
22	0x3c81c641	0.015841605
23	0xbc63b194	-0.013897318
24	0x3cc913a1	0.024545493
25	0x3d0a2cff	0.033734318
26	0x3d1b12e7	0.037859824
27	0xbc3ae26c	-0.011406522
28	0xbb8b619f	-0.0042535807
29	0xbc653da3	-0.013991746
30	0x3cf96ff6	0.030448895
31	0x3d22d997	0.03975829
32	0x3ce700bd	0.028198594
33	0x3cf5fd96	0.030028146
34	0x3ce412ad	0.027840937
35	0xbc9525fe	-0.018206593
36	0xbce747a9	-0.028232412
37	0xbbc8ccd1	-0.0061279316
38	0xbc090b6d	-0.0083645405
39	0xbcb6d171	-0.022316666
40	0x3c8fe2bb	0.017564168
41	0xbaa7a0fe	-0.0012789068
42	0x38a6c81e	7.9527716e-05
43	0xbb5c6411	-0.003362898
44	0x3bac5f78	0.005260404
45	0xbbae1eea	-0.005313744
46	0xbc1c338d	-0.009533775
47	0x3cef710a	0.029228706
48	0xbbd4c7cf	-0.0064935456
49	0xbb13a152	-0.0022526574
50	0xbc2ea8d4	-0.010660369
51	0x3c5c32f1	0.01343988
52	0x3c9eb134	0.019371606
53	0xbce8759a	-0.02837639
54	0x3c41feca	0.011840532
55	0x3c1dbc41	0.009627403
56	0x3c04664e	0.008081032
57	0x3b8e0511	0.0043341
58	0xbc302cc1	-0.010752858
59	0xbbf1dbab	-0.007380923
60	0xb8100bee	-3.4343386e-05
61	0x3bbee1ba	0.0058252485
62	0x3c11c7ba	0.008897716
63	0xbb20c90c	-0.0024533896
64	0xbcc1f75b	-0.023677519
65	0xbcf357bb	-0.02970492
66	0x3ae1fc65	0.0017241357
67	0xbc41f402	-0.011837961
68	0xbc88e574	-0.016710974
69	0xbc3cb3b9	-0.011517459
70	0x3c75ccb0	0.015002415
71	0xbbd21440	-0.0064111054
72	0x3caf3bc8	0.02139081
73	0x3b298948	0.002586918
74	0x3c4e45df	0.012589901
75	0x3c586a1a	0.01320889
76	0x3d04f4d0	0.032460034
77	0xbc542e84	-0.012950543
78	0x3c9632c5	0.018334756
79	0xbcb0d86f	-0.021587579
80	0x3ccf57de	0.025310453
81	0xbcbedbce	-0.02329817
82	0x3c8594c9	0.016306298
83	0xbcca7e77	-0.024718506
84	0xbcc0ad8a	-0.02352025
85	0x3bd27c85	0.0064235353
86	0xbc33b0de	-0.010967461
87	0x3d17cfdb	0.03706346
88	0x3c25b9b5	0.010115077
89	0x3d1a2e40	0.037641764
90	0x3c2b0390	0.010437861
91	0x3d21ac88	0.03947118
92	0x3c4f33c4	0.012646619
93	0x3b83d130	0.00402274
94	0x3d0c9845	0.034324903
95	0xbc9c6147	-0.019089354
96	0x3cac1c70	0.021009654
97	0x3c39d939	0.011343294
98	0x3d20a308	0.03921798
99	0xbcc30a49	-0.023808615
100	0xbcd0363c	-0.025416486
101	0xbcdbdd30	-0.026838869
102	0x3d1467c9	0.03623179
103	0xbc98e4d2	-0.018663798
104	0xbcf8af0f	-0.030356912
105	0x3c8acfe4	0.016944833
106	0xbb69dc12	-0.003568415
107	0xbcd82698	-0.02638559
108	0x3c609177	0.0137065565
109	0xbcc15b8c	-0.023603223
110	0x3c87ac27	0.01656158
111	0xbc85469f	-0.016269026
112	0x3d0a96b7	0.03383514
113	0x3cfb5e8c	0.030684732
114	0x3d0e85eb	0.034795683
115	0x3c683022	0.014171632
116	0x3c74e817	0.014947913
117	0x3c713cad	0.014723939
118	0x3c63c2c1	0.013901413
119	0xbcafb0fe	-0.021446701
120	0x3c39c26d	0.011337859
121	0x3c4a2971	0.012338982
122	0x3d169268	0.036760718
123	0x3cd15bda	0.025556494
124	0x3d025164	0.0318159
125	0x3c982c0f	0.018575696
126	0xbcdca777	-0.026935322
127	0xbcb52364	-0.022111602
128	0xbab1324d	-0.0013519019
129	0x3c9661e2	0.018357221
130	0x3c3fcd37	0.011706642
131	0x3c901add	0.017590934
132	0xbc49f0eb	-0.012325506
133	0xbbaa96b1	-0.005205952
134	0x3cd3e0a7	0.025863959
135	0xbcf62fa3	-0.030052012
136	0xbc0bfacd	-0.008543682
137	0xbc22aa2b	-0.0099282665
138	0xbb14f822	-0.0022730906
139	0xbcdc9f97	-0.026931567
140	0x3ca199d4	0.019726671
141	0xbc549b20	-0.012976438
142	0xbc9b6991	-0.018971236
143	0x3d076128	0.03305164
144	0xbbe330ea	-0.0069333212
145	0xbcd0d2d4	-0.025491156
146	0x3b7a78ef	0.0038219055
147	0x3d128e81	0.035780434
148	0x3d216399	0.039401624
149	0xbc80d893	-0.01572827
150	0x3cd80eb0	0.026374191
151	0x3cc932b8	0.024560317
152	0x3c9cd127	0.0191427
153	0x3d27b57f	0.040944573
154	0x3ced5979	0.028973328
155	0xbc6ad89c	-0.01433387
156	0xbcddd698	-0.027079865
157	0x3d0efb97	0.034907904
158	0x3cca2ea4	0.024680443
159	0xbc118c8f	-0.008883609
160	0xbc48259d	-0.012215999
161	0xbc088291	-0.008331911
162	0x3d25a43a	0.04043982
163	0xbcda7c24	-0.026670523
164	0xbccde569	-0.025133805
165	0xbc505946	-0.012716597
166	0x3d065946	0.03279998
167	0x3c560ddb	0.013064827
168	0x3a920f81	0.0011143537
169	0x3b6f0bc6	0.0036475523
170	0x3b9e19e5	0.004824864
171	0xba085a34	-0.00052014296
172	0xbc1fe040	-0.009758055
173	0xbc86ae87	-0.016440643
174	0xbcf1b843	-0.029506808
175	0xbce96288	-0.028489366
176	0xbcc78fb8	-0.024360523
177	0xbcf0764e	-0.029353287
178	0x3cfe30d4	0.031029142
179	0x3b62d20e	0.0034610066
180	0xbc0e406d	-0.0086823525
181	0x3cc26851	0.023731383
182	0x3c59dfde	0.013298003
183	0x3befd65e	0.0073192557
184	0x3c51acd6	0.012797555
185	0xbcb4b565	-0.022059152
186	0xbba07ea9	-0.0048979116
187	0xbc523534	-0.012830067
188	0xbc95de3f	-0.018294452
189	0x3d033961	0.032037143
190	0xbcf6d543	-0.030130988
191	0x3c4d6021	0.012535126
192	0x3c5d02ed	0.013489467
193	0x3cfe7aa7	0.031064345
194	0x3ca0436b	0.019563397
195	0xbcc5aaf7	-0.024129374
196	0xbb168c41	-0.0022971781
197	0xbc927ecf	-0.017882733
198	0xbce01f1f	-0.02735859
199	0x3d15946d	0.036518503
200	0xbcedc80a	-0.02902605
201	0x3c3bc696	0.011460921
202	0xbc62647e	-0.0138179045
203	0xbcbbe02b	-0.02293404
204	0x3cb89deb	0.022536239
205	0xbc484ffe	-0.012226103
206	0xb95e170b	-0.00021180154
207	0xb96fe718	-0.00022878905
208	0xbbd73c25	-0.006568449
209	0xbcbd180e	-0.02308276
210	0x3c52ed21	0.012873919
211	0x3ae05ef1	0.0017118138
212	0xbc540567	-0.012940741
213	0x3a5cd425	0.0008423946
214	0x3cda762a	0.026667673
215	0xbcac41e8	-0.02102752
216	0x3c6fb9b6	0.014631679
217	0x3d1d11a5	0.038346905
218	0xbcf77d90	-0.03021124
219	0x3c6b9ddb	0.014380897
220	0xbc5a4094	-0.013321061
221	0xbb936439	-0.0044980315
222	0x3ccf3596	0.025294106
223	0x3c970952	0.018437061
224	0x3c44ab76	0.01200377
225	0xbb33e592	-0.0027450067
226	0xbcb3df9b	-0.02195721
227	0x3d0eea58	0.034891456
228	0xbc9e97b9	-0.019359456
229	0xba94f5e6	-0.0011364787
230	0xbc1fdf80	-0.009757876
231	0xbbb49161	-0.0055104946
232	0xbcd33b0d	-0.025784994
233	0x3cdde52f	0.027086822
234	0xbc55d212	-0.013050573
235	0x3d1ed3fa	0.038776375
236	0x3bb87dd7	0.0056302357
237	0xba0a74e9	-0.0005281703
238	0xbc1eccf3	-0.009692418
239	0x3c819095	0.015816012
240	0x3cf44728	0.029819086
241	0xbc63d6c6	-0.013906186
242	0xbc4d886d	-0.0125447335
243	0x3cd580e7	0.026062442
244	0x3c4da7b7	0.012552193
245	0x3c0e5612	0.008687513
246	0x3cfb4c95	0.030676166
247	0xbccf1b45	-0.025281558
248	0x3d1f8d55	0.038953144
249	0xbaba5b3f	-0.0014217867
250	0x3b212082	0.0024586027
251	0xbba4b0bc	-0.005025951
252	0xbc8d269f	-0.01723033
253	0xbc88599d	-0.016644293
254	0xbbec3bfc	-0.007209299
255	0xbc55393b	-0.013014133

encoder.0.bias f4 [128]
0	0xbd2143db	-0.039371353
1	0x3cb4d3f7	0.022073729
2	0xbd0899fb	-0.033349972
3	0x3c243241	0.010021747
4	0xbc3cd36b	-0.011525015
5	0xbc0213c6	-0.007939285
6	0x3cab282c	0.020893179
7	0xbda0ac1c	-0.07845327
8	0x3d32da77	0.043665376
9	0x3bb62c73	0.005559498
10	0x3d819aa0	0.063283205
11	0xbd1fdb11	-0.039027277
12	0xbcd84f45	-0.026404986
13	0x3cf73371	0.030175896
14	0xbba26050	-0.004955329
15	0xbcfa2887	-0.030536903
16	0x3c637771	0.0138834575
17	0xbb95d938	-0.0045730136
18	0x3d0b136a	0.03395406
19	0xbd1b509e	-0.03791868
20	0xbb8d0899	-0.0043040034
21	0x3aa73ba9	0.0012758869
22	0xbd0f2918	-0.0349513
23	0xbce66698	-0.028125092
24	0x3cc4f6ba	0.02404343
25	0xbd01b9aa	-0.031671204
26	0x3b499841	0.0030760916
27	0x3d68e28b	0.056856673
28	0xbce01ee3	-0.027358478
29	0x3cc6a921	0.024250569
30	0xbcd96992	-0.026539598
31	0xbd0d9606	-0.0345669
32	0xbcbb1025	-0.022834847
33	0xbdb6a5fc	-0.08918378
34	0xbc8f9ecc	-0.017531775
35	0x3d0162df	0.03158843
36	0xbc3b7aa9	-0.011442819
37	0x3c96224f	0.018326906
38	0x3ce8f6b6	0.028437953
39	0x3d4c6ceb	0.04990856
40	0x3cbda1fc	0.02314853
41	0x3cb2c084	0.021820314
42	0xbc21289c	-0.009836342
43	0xbc49534d	-0.012287927
44	0xbc6304d2	-0.01385613
45	0xbb68c538	-0.0035517942
46	0x3cec5087	0.028846992
47	0x3ca12ea9	0.01967557
48	0xbcee72e7	-0.029107524
49	0xbd21738c	-0.039416835
50	0x3cb9a7b3	0.022662973
51	0xbbcbdacf	-0.0062211524
52	0x3dbf1e56	0.09331958
53	0x3ca371be	0.019951697
54	0xbc79cc23	-0.015246424
55	0xbc94c83d	-0.018161887
56	0xbca4e24d	-0.02012744
57	0x3d7551df	0.05989253
58	0xbc7b7509	-0.015347728
59	0xbd29db23	-0.04146875
60	0x3b7c7b1a	0.0038525523
61	0x3bb3ab75	0.0054830858
62	0x3d01408e	0.031555705
63	0xbc5288f3	-0.012850034
64	0xbd021816	-0.03176125
65	0xbc80c124	-0.015717097
66	0xbc2cf94f	-0.010557487
67	0x3c1b078d	0.009462249
68	0x3d559b22	0.0521499
69	0xbd2391b1	-0.039933864
70	0x3cb123be	0.021623489
71	0xbd3376a0	-0.0438143
72	0x3c59400b	0.013259898
73	0xbcfc4fc8	-0.030799761
74	0xbcd069f5	-0.02544115
75	0xbd0b6076	-0.03402754
76	0x3cb3d77e	0.02195334
77	0xbd1fce87	-0.03901532
78	0xbd3f7bc8	-0.046748906
79	0x3c8308cd	0.015995407
80	0xbcd2a665	-0.025714109
81	0xbd2436ab	-0.040091198
82	0x3d6689e3	0.056283843
83	0xbd0ad37d	-0.033893097
84	0x3d1309ac	0.035897896
85	0x3bbf6cb5	0.0058418163
86	0xbaca5ec7	-0.0015439623
87	0x3bf9090a	0.0075999545
88	0xbc6dcf4e	-0.014514757
89	0xbcbf341f	-0.023340283
90	0xbb0dc40b	-0.0021631743
91	0xbd0a1156	-0.03370794
92	0x3bb0ea7a	0.0053990455
93	0x3c9a359e	0.018824395
94	0xbc38a259	-0.011269175
95	0x3d1a7938	0.03771326
96	0x3cfe64df	0.031053958
97	0x3be2fa63	0.006926821
98	0x3af48dc8	0.0018657977
99	0x3c24d11d	0.010059622
100	0xbc7037f3	-0.014661777
101	0x3c6bd47b	0.014393921
102	0xbcc0c959	-0.02353351
103	0xbcd4a4ad	-0.02595743
104	0x3d69351e	0.056935422
105	0x3c8509d9	0.016240047
106	0xbc02b905	-0.007978682
107	0xbd20e27d	-0.039278496
108	0x3c4fae30	0.012675807
109	0xbcebe791	-0.028796943
110	0xbcf1952a	-0.029490072
111	0xbc815c4d	-0.015791083
112	0xbd1bee25	-0.03806891
113	0xbc7510d8	-0.014957629
114	0x3c8c8137	0.017151458
115	0xbd3a0cec	-0.04542248
116	0x3c9035b5	0.017603735
117	0xbb532851	-0.0032220075
118	0x3d2b7484	0.041859165
119	0xbb6c055f	-0.0036013944
120	0xbb926390	-0.004467435
121	0x3d0eeb25	0.03489222
122	0x3c413cee	0.011794312
123	0x3c07636a	0.008263448
124	0xbc138999	-0.009004974
125	0xbd75aecc	-0.059981152
126	0xbce7687c	-0.028248064
127	0x3aafe3f5	0.0013419377

encoder.2.weight f4 [64, 128]
0	0xbcbfb69d	-0.023402506
1	0x3d0c8ec1	0.03431583
2	0x3daab211	0.08334745
3	0x3d10e060	0.03537023
4	0xbd13e079	-0.036102746
5	0xbb5c0b17	-0.0033575946
6	0xbda3db4e	-0.080008134
7	0x3d8b8a79	0.06813521
8	0x3dec22a6	0.11530046
9	0x3dacc226	0.084354684
10	0xbd97a565	-0.074045934
11	0x3c944927	0.018101288
12	0xbb26a687	-0.0025428848
13	0x3b05103b	0.0020303864
14	0xbd11ec61	-0.03562582
15	0xbd9618bb	-0.07328936
16	0xbd82343b	-0.063576184
17	0x3d2c2156	0.04202398
18	0xbdc390bb	-0.095490895
19	0x3cd61a9c	0.026135735
20	0xbd4ab957	-0.04949316
21	0x3d8f6d83	0.070033096
22	0xbcd3faf8	-0.025876507
23	0x3d75b33e	0.05998539
24	0xbd0ce575	-0.034398515
25	0xbd488ceb	-0.048962515
26	0x3d003849	0.031303678
27	0x3d5af444	0.053455606
28	0xbcc39ad8	-0.023877546
29	0x3de2b720	0.110700846
30	0x3d4e030b	0.05029587
31	0xbd9d24b6	-0.07673018
32	0xbbcf947e	-0.0063348403
33	0xbd6f021b	-0.058351617
34	0x3cd4d672	0.025981162
35	0xbc76d5c7	-0.015065617
36	0xbca77b4e	-0.020444538
37	0x3d3e3d3e	0.046445124
38	0x3d9b9312	0.07596411
39	0x3e4bc124	0.19897896
40	0x3d5e291b	0.05423842
41	0x3d564131	0.052308265
42	0xbce35bc7	-0.027753724
43	0xbc485989	-0.012228378
44	0x3d7ec145	0.062196035
45	0x3d2ac80b	0.041694682
46	0x3c3a3a15	0.011366387
47	0x3db1ab51	0.08675254
48	0xbd225f84	-0.039641872
49	0xbc1c7c51	-0.009551124
50	0x3defd585	0.117106475
51	0x3c193328	0.0093505755
52	0x3d4d09a2	0.050058015
53	0x3d7c0fa9	0.061538372
54	0x3d85ce7f	0.06533527
55	0xbd0d3845	-0.03447749
56	0xbb591f8b	-0.0033130373
57	0x3be0faed	0.00686585
58	0x3d7cd2af	0.06172436
59	0x3bf01c9f	0.0073276307
60	0xbd3aa3ea	-0.045566477
61	0x3d5947fc	0.053047165
62	0xbdc85b25	-0.097830094
63	0xbd1083d6	-0.03528198
64	0x3d85c8f6	0.06532471
65	0xbcfb5900	-0.030682087
66	0x3d98dfe0	0.07464576
67	0x3d71184a	0.058861054
68	0x3dae8982	0.08522321
69	0xbb2766ad	-0.0025543377
70	0xbd6ab845	-0.05730464
71	0x3e635c60	0.22203207
72	0x3d20c649	0.0392516
73	0x3cc6356c	0.024195395
74	0x3ae99276	0.0017820138
75	0xbd81ca8a	-0.063374594
76	0xbceec7af	-0.029147951
77	0x3d8f331a	0.06992169
78	0x3d06a6d3	0.03287394
79	0xbd54a2c0	-0.051913023
80	0xbd5778ac	-0.052605316
81	0x3d9cd497	0.07657736
82	0x3bf2d2cb	0.0074103824
83	0x3d8c2512	0.06843008
84	0xbd29765f	-0.041372653
85	0xbd9187b1	-0.07105959
86	0x3cbee270	0.023301333
87	0x3cafcb34	0.0214592
88	0x3d2db13e	0.04240536
89	0x3deead70	0.11654174
90	0x3d23d81c	0.04000102
91	0xbda3cae5	-0.079976834
92	0x3b6c3946	0.003604488
93	0xbd036567	-0.032079127
94	0xbd26dee2	-0.0407399
95	0x3e17e34f	0.14832805
96	0xbdba36b8	-0.09092468
97	0xbc78a3c0	-0.01517576
98	0x3d4ba7f6	0.049720727
99	0x3d8cf03d	0.06881759
100	0x3d8f1dd8	0.06988114
101	0xbd88699e	-0.0666077
102	0x3d8bc73c	0.0682511
103	0xbd3063aa	-0.043063797
104	0xbe022cba	-0.12712374
105	0xbc063474	-0.008191217
106	0xbd964d86	-0.07339005
107	0xbcd745df	-0.026278434
108	0x3e36e2ce	0.17859957
109	0x3c1f0af6	0.009707203
110	0x3ced5d99	0.028975295
111	0x3c67b17a	0.014141435
112	0x3c6de092	0.014518874
113	0xbd88d9a1	-0.066821344
114	0x3c9fa3b4	0.01948724
115	0x3e2b6617	0.16738163
116	0x3d7281e6	0.059205912
117	0xbdb4fcb1	-0.088372596
118	0xbd99179a	-0.07475205
119	0xbddcd944	-0.10783628
120	0x3bbc4aa6	0.0057462035
121	0xbde557ee	-0.11198412
122	0x3cb51264	0.022103496
123	0xbd83d0be	-0.06436299
124	0xbda9b4a4	-0.082864076
125	0xbd68716e	-0.0567488
126	0x3d924efb	0.071439706
127	0xbbbc105d	-0.0057392553
128	0x3c467233	0.012112188
129	0x3c83d309	0.01609184
130	0x3c5b31e3	0.013378593
131	0xbdada551	-0.08478797
132	0x3d2e9ba8	0.042628914
133	0xbc8cd61e	-0.017191943
134	0xbd0bf2ea	-0.034167208
135	0x3d51fb32	0.05126495
136	0x3d1d2bcc	0.038371846
137	0xbd877f3f	-0.06616067
138	0xbd8d71c2	-0.06906463
139	0x3adce8a3	0.0016853999
140	0x3c909b6c	0.017652236
141	0xbdd877aa	-0.10569699
142	0x3caa8673	0.020816064
143	0xbd8168aa	-0.06318791
144	0xbc52c0e1	-0.012863369
145	0x3c1cec4c	0.009577822
146	0x3d152bac	0.036418602
147	0x3d61addb	0.055097442
148	0x3d8e5ebd	0.06951664
149	0x3d73c85c	0.05951725
150	0xbd9f03ba	-0.07764383
151	0xbcce532b	-0.025186142
152	0xbd9d68c9	-0.07686002
153	0xbd9df4a1	-0.07712675
154	0x3d95d1be	0.07315396
155	0xbd3c95cc	-0.046041295
156	0x3c6d9008	0.014499672
157	0xbd9b262d	-0.07575641
158	0x3d68220a	0.056673087
159	0xbbaaa9c7	-0.0052082273
160	0x3d90ed83	0.07076552
161	0x3d0184b6	0.031620704
162	0xbbeb04d9	-0.0071722087
163	0xbd04e764	-0.032447234
164	0xbd9218a4	-0.07133606
165	0x3d07e2f5	0.033175427
166	0xbdbdb1f3	-0.09262457
167	0xbd927f5c	-0.07153198
168	0x3bbc830e	0.0057529276
169	0xbd3f7018	-0.04673776
170	0x3b3c147f	0.002869874
171	0x3cfaccd0	0.03061524
172	0x3d5841d1	0.052797142
173	0x3d405226	0.046953343
174	0x3d278277	0.040895905
175	0xbdc8c402	-0.098030105
176	0x3cb08f2c	0.021552645
177	0xbd132b2d	-0.035929848
178	0x3ccd82df	0.025086818
179	0xbbfd9fa6	-0.007739979
180	0xbb8f970c	-0.00438202
181	0x3d0fe015	0.03512581
182	0x3d646071	0.055756036
183	0x3d9b57f8	0.07585138
184	0xbcee77d0	-0.029109865
185	0xbd8d498a	-0.06898792
186	0x3cd9a3ce	0.026567366
187	0x3d4ae3d9	0.0495337
188	0x3ce638ec	0.028103314
189	0xbd12f1b4	-0.035875037
190	0xbd868d56	-0.065699264
191	0xbd2c0929	-0.042000923
192	0x3c9c5d1e	0.01908737
193	0x3c9518ef	0.018200366
194	0x3c8aaac2	0.016927127
195	0x3b896e79	0.0041940776
196	0xbc2997f5	-0.010351171
197	0xbdb2b9e4	-0.08726862
198	0xbd98e9fc	-0.07466504
199	0x3d14a791	0.036292616
200	0xbda76b75	-0.08174793
201	0x3cc48177	0.023987515
202	0x3d8262cf	0.063665025
203	0x3d042813	0.03226478
204	0xbd2ea418	-0.04263696
205	0xbd7832d5	-0.060595352
206	0xbd59cdd3	-0.053174805
207	0xbda23aff	-0.07921409
208	0x3d366e88	0.044539005
209	0xbd88f582	-0.06687452
210	0xbd74bb5d	-0.059748996
211	0xbccf75ea	-0.02532478
212	0x3d5c637d	0.053805817
213	0x3d9c26da	0.07624598
214	0xbc2b39c5	-0.010450785
215	0x3d1d1202	0.03834725
216	0xbc3d07c8	-0.0115375
217	0xbccbe75a	-0.02489059
218	0xbd67ab1e	-0.056559674
219	0x3d0530d7	0.03251728
220	0x3c9b32ef	0.018945185
221	0x3d506f50	0.050887406
222	0xbd7dafcd	-0.061935235
223	0x3d36bdef	0.04461473
224	0x3d3933db	0.04521547
225	0xbc83ba98	-0.016080186
226	0xbd5ec8e7	-0.054390814
227	0xbd98737a	-0.074439004
228	0x3d800f29	0.062528916
229	0xbdaa3373	-0.083105944
230	0xbd436ba2	-0.04771007
231	0xbbe3c147	-0.0069505307
232	0xbd7be8c9	-0.061501298
233	0xbd5fe2ca	-0.054659642
234	0x3d3b19ad	0.045678783
235	0xbdb95757	-0.09049862
236	0xbd0c81c2	-0.034303434
237	0xbd291f53	-0.04128964
238	0x3d5a7013	0.05332954
239	0xbd5149d0	-0.051095784
240	0xbccebebb	-0.025237432
241	0xbd5cb081	-0.053879265
242	0x3cad7604	0.021174438
243	0x3cd062b8	0.025437698
244	0xbb6a424a	-0.0035745078
245	0x3cf740aa	0.030182201
246	0x3caab053	0.020836031
247	0x3beaa27c	0.007160483
248	0x3d294337	0.041323867
249	0xbd83fe3d	-0.064449765
250	0x3d14bf3c	0.036315188
251	0xbcd143c9	-0.025545018
252	0x3d281178	0.041032284
253	0x3d26c0bb	0.040711146
254	0x3d8f0d6a	0.069849804
255	0xbd88f7f6	-0.0668792

encoder.2.bias f4 [64]
0	0xbc92d8cf	-0.017925648
1	0x3cd67ede	0.026183542
2	0xbc1e24a1	-0.009652288
3	0x3d02d3f1	0.031940404
4	0x3dd3d45c	0.10343239
5	0xbd313755	-0.04326566
6	0xbd4e341b	-0.05034266
7	0x3d3a0527	0.04541507
8	0xbe0d61af	-0.13806795
9	0x3e43aa68	0.19107974
10	0x3bc99295	0.006151507
11	0xbc02add0	-0.00797601
12	0xbd8b3f93	-0.06799235
13	0x3d0ffa02	0.035150535
14	0xbd8fbf15	-0.07018868
15	0xbc4f4bc5	-0.012652342
16	0xbbf08277	-0.0073397714
17	0xbd079eae	-0.033110313
18	0xbd4b80f2	-0.04968352
19	0xbd93ae7d	-0.072110154
20	0xbd389405	-0.045063037
21	0x3d264228	0.040590435
22	0x3b9994c5	0.004686924
23	0xbdc5fbd0	-0.0966717
24	0x3dfd73cc	0.12375602
25	0x3e14e79a	0.14541474
26	0x3d99a636	0.07502405
27	0x3de2728b	0.110570036
28	0xbc4e757d	-0.012601254
29	0xbd3b7824	-0.045768872
30	0x3ba358f8	0.004984971
31	0xbccfd696	-0.025370877
32	0xbde5f3fe	-0.112281784
33	0x3cc04984	0.023472555
34	0xbd085452	-0.03328354
35	0x3c9d9067	0.019233895
36	0x3d80a06e	0.062805995
37	0xbce1d925	-0.027569363
38	0xbce6042a	-0.028078157
39	0x3db01664	0.08598021
40	0x3d29d12d	0.04145925
41	0x3d3bd9c9	0.045861993
42	0x3c87e3ae	0.016588058
43	0x3d8bdaea	0.06828864
44	0xbcda28f3	-0.026630854
45	0xbda96c87	-0.08272653
46	0x3c9dd4f4	0.019266583
47	0xbd5368af	-0.051613506
48	0x3e125abe	0.14292428
49	0x3c527f64	0.012847755
50	0x3d592b5d	0.05301987
51	0xbcaae887	-0.02086283
52	0xbd3b5d45	-0.045743246
53	0xbd5dfb0c	-0.054194495
54	0x3d05c30c	0.032656714
55	0xbd4304b8	-0.047611922
56	0xbd170563	-0.03687037
57	0x3c84c2e9	0.016206222
58	0x3dc1e2d1	0.0946709
59	0xbc1e18a8	-0.009649433
60	0xbc5ea80f	-0.013589873
61	0x3cdc4112	0.026886497
62	0x3ce03703	0.027369982
63	0x3ca220a2	0.019790951

encoder.4.weight f4 [32, 64]
0	0x3d47741b	0.04869471
1	0x3dcb04a4	0.099129945
2	0xbda3f095	-0.08004872
3	0xbda4c49c	-0.08045313
4	0x3dadbbf1	0.084831126
5	0x3dde838b	0.108649336
6	0x3d185d6e	0.037198476
7	0xbce3aeb0	-0.027793258
8	0x3d96c989	0.073626585
9	0x3de8cebf	0.11367559
10	0xbe18d6be	-0.14925668
11	0x3dc5a8a2	0.09651305
12	0x3dcf51b9	0.10123009
13	0x3de03213	0.10947051
14	0xbd435292	-0.047686167
15	0x3d5eb130	0.054368198
16	0x3d790e6b	0.060804766
17	0xbdf1d692	-0.11808504
18	0x3d0171eb	0.03160278
19	0x3d769db4	0.06020899
20	0xbd01ff00	-0.031737328
21	0xbe1d3197	-0.15350948
22	0xbe1a408c	-0.15063685
23	0x3ce53ce0	0.027983129
24	0xbdd0c80d	-0.10194407
25	0xbddbc558	-0.10731
26	0x3deb36a3	0.114850305
27	0x3d329ff7	0.043609586
28	0x3daa5359	0.083166786
29	0x3d061d67	0.032742884
30	0xbe0178c7	-0.12643729
31	0x3bf8a469	0.0075879586
32	0xbcf0156c	-0.02930709
33	0xbc8ae346	-0.016954076
34	0x3d596198	0.05307159
35	0xbdf1abac	-0.11800322
36	0x3d8624dd	0.0655
37	0xbe01b4af	-0.12666582
38	0xbde6a5e2	-0.112621084
39	0xbd86f907	-0.06590467
40	0xbc9275da	-0.017878462
41	0xbdd06e9f	-0.10177349
42	0x3c3ed4ae	0.0116473865
43	0xbc8afc5c	-0.016966037
44	0xbd519571	-0.05116791
45	0xbd5232a1	-0.051317815
46	0xbdc97824	-0.09837368
47	0x3d513e59	0.05108485
48	0x3e02d2bc	0.12775701
49	0xbe02160d	-0.12703724
50	0xbe0b24bc	-0.13588232
51	0xbd5f1269	-0.054460917
52	0x3c8a5ee4	0.01689095
53	0x3da9dd25	0.08294133
54	0x3dc2d12a	0.09512551
55	0xbdf63d52	-0.12023415
56	0xbddbf3ee	-0.10739885
57	0x3b8c71c9	0.004286025
58	0x3dab9c92	0.08379473
59	0x3dc92e0e	0.09823237
60	0xbe1bffaa	-0.15234247
61	0x3d818787	0.06324678
62	0x3dd6201d	0.10455344
63	0x3d3cfcde	0.04613959
64	0x3df628b8	0.12019485
65	0xbd245352	-0.040118523
66	0xbc831aa7	-0.01600392
67	0x3ddd1025	0.10794095
68	0x3dd2dc65	0.10295943
69	0xbc87590c	-0.016521953
70	0xbe13ec86	-0.14445695
71	0x3bdccba4	0.006738143
72	0x3db9aa69	0.09065706
73	0x3d82afab	0.06381162
74	0x3d7e035b	0.06201492
75	0x3de3d9ab	0.11125501
76	0x3dd11bf4	0.1021041
77	0xbdf99ffe	-0.12188719
78	0x3e1d2408	0.15345776
79	0xbe0aea1a	-0.13565865
80	0x3ecfd9aa	0.40595752
81	0x3df0ed6a	0.11764033
82	0x3e20a197	0.15686642
83	0x3d387445	0.04503276
84	0x3d31a87b	0.043373566
85	0xbe0d04a1	-0.13771297
86	0xbd33b09b	-0.043869596
87	0x3c952f0b	0.018210908
88	0x3e66264e	0.2247555
89	0xbe0b72aa	-0.1361796
90	0xbe934577	-0.28763935
91	0x3ded72d6	0.11594169
92	0xbd62baf3	-0.05535407
93	0x3df0e16c	0.11761746
94	0xbe0c9124	-0.13727242
95	0x3d071bfd	0.032985676
96	0x3d339f05	0.043852825
97	0xbd341038	-0.04396078
98	0x3d656c27	0.056011345
99	0x3e9631bb	0.29334816
100	0xbbb17b19	-0.0054162857
101	0xbd96f765	-0.073714055
102	0xbd4b4ac7	-0.04963186
103	0x3e4df9ab	0.20114772
104	0xbd0a2090	-0.03372246
105	0x3ce352a1	0.027749361
106	0x3ca19e47	0.019728793
107	0x3d084736	0.033271037
108	0x3ca81f1f	0.020522652
109	0xbd317674	-0.043325856
110	0x3ce0ef15	0.027457753
111	0x3dc58322	0.09644152
112	0xbe00f47e	-0.12593266
113	0x3e3a8038	0.18212974
114	0x3d24e3b1	0.040256206
115	0xbc1590d4	-0.009128768
116	0x3cd5ca73	0.026097512
117	0x3d73cf63	0.05952395
118	0x3d86e1e6	0.065860555
119	0xbe1919f9	-0.14951314
120	0xbd6475d8	-0.055776447
121	0xbda47727	-0.08030539
122	0x3e3d120c	0.18463916
123	0xbcd36e69	-0.025809484
124	0x3dcca4dd	0.09992383
125	0xbddb3bc2	-0.10704757
126	0x3d7f0af4	0.062266305
127	0xbe1440d3	-0.14477853
128	0x3df302c2	0.118657604
129	0x3dcbc884	0.09950355
130	0x3db71a52	0.08940567
131	0x3e02d87e	0.12777898
132	0xbbe6104f	-0.007020987
133	0xbd82c0bf	-0.0638442
134	0x3e1d2117	0.15344654
135	0x3e124912	0.14285687
136	0xbd00f62b	-0.031484764
137	0xbd642e23	-0.055708062
138	0xbde275f7	-0.11057656
139	0x3dcc5851	0.099777825
140	0x3cbc3647	0.0229751
141	0x3d8a82de	0.06763242
142	0x3e0fa369	0.1402718
143	0xbd9964c7	-0.07489925
144	0xbdd11e3d	-0.102108456
145	0x3d90fd97	0.070796184
146	0x3d71a7fb	0.05899809
147	0xbc06adf3	-0.008220184
148	0xbca233f8	-0.019800171
149	0x3d8c18ae	0.06840645
150	0x3e426b6e	0.18986294
151	0xbd05c7e8	-0.03266135
152	0xbe0942b6	-0.13404354
153	0xbe339611	-0.17537715
154	0x3d52a49b	0.05142651
155	0x3d5fe134	0.05465813
156	0xbd265000	-0.040603638
157	0x3ce5faee	0.028073754
158	0x3e1f9ebe	0.15587899
159	0x3de99227	0.114048295
160	0xbdfa00f0	-0.1220721
161	0x3e3a046a	0.18165746
162	0xbd6bd266	-0.0575737
163	0xbcf5f3c9	-0.030023472
164	0xbd71ed4e	-0.059064202
165	0x3ca2c60d	0.019869829
166	0xbd28c1af	-0.041200336
167	0xbccc3ed8	-0.02493231
168	0x3e10ef92	0.14153889
169	0x3d99afb0	0.07504213
170	0xbdc81eb6	-0.09771483
171	0xbdb4d9a8	-0.08830577
172	0xbd658142	-0.056031473
173	0xbd833dd9	-0.06408281
174	0x3e3d3e77	0.1848086
175	0xbd1c9da4	-0.038236275
176	0x3d9b5222	0.07584025
177	0x3eb4a525	0.35282245
178	0xbe1781f3	-0.14795665
179	0xbe0e69c6	-0.13907537
180	0xbc09dcf8	-0.008414499
181	0xbe04a55e	-0.12953708
182	0x3d8c3486	0.068459556
183	0xbdf7f8ae	-0.12107979
184	0xbd9684ca	-0.07349546
185	0x3e406e53	0.18792085
186	0x3c8f31f4	0.017479874
187	0xbcf84f34	-0.030311204
188	0x3dac61c7	0.08417087
189	0xbcc23ec3	-0.023711568
190	0x3cde6c66	0.027151298
191	0xbe1bd070	-0.15216231
192	0xbd2ffc0a	-0.042964973
193	0xbc55a6e7	-0.013040281
194	0xbd7a6f19	-0.061141107
195	0xbde443c5	-0.111457385
196	0xbd246f81	-0.0401454
197	0x3ce08e95	0.027411738
198	0x3d3d6050	0.04623443
199	0x3c52b7f1	0.012861238
200	0x3e27075f	0.16311406
201	0x3dbf06a3	0.09327438
202	0xbddf3f6a	-0.10900767
203	0xbd3cb8c8	-0.04607466
204	0x3da48982	0.0803404
205	0x3d3aa18a	0.045564212
206	0x3e0384dd	0.12843652
207	0x3cc11474	0.023569323
208	0xbe2bfba2	-0.16795209
209	0xbdeabe7d	-0.11462114
210	0x3dce5df7	0.10076516
211	0xbcd6457e	-0.026156183
212	0x3df32032	0.11871375
213	0x3d267549	0.040639196
214	0x3d122b18	0.03568563
215	0x3d409c04	0.047023788
216	0xbe426dde	-0.18987224
217	0xbbb047bf	-0.0053796466
218	0x3e911e8b	0.28343615
219	0x3cf0e1c6	0.029404532
220	0xbdc694a8	-0.09696323
221	0x3cb646cd	0.022250557
222	0xbe2d40d8	-0.16919267
223	0x3e0498a0	0.12948847
224	0x3e19d4ff	0.15022658
225	0xbe1296ca	-0.14315334
226	0x3d07215b	0.032990795
227	0xbdd46714	-0.10371223
228	0x3c739cce	0.014868928
229	0x3e8ff714	0.28118193
230	0x3d5461df	0.05185115
231	0xbe627794	-0.22115928
232	0x3d0def6e	0.034652166
233	0xbd8c304e	-0.06845151
234	0xbceec536	-0.029146772
235	0xbc945246	-0.018105637
236	0x3d76b6d0	0.060232937
237	0xbd564c66	-0.052318953
238	0x3e76f979	0.24118604
239	0x3e44d13e	0.19220445
240	0xbd91815a	-0.0710475
241	0xbc2d04b9	-0.010560208
242	0x3e07534b	0.13215367
243	0x3e16b64b	0.14717977
244	0xbdf89419	-0.121376224
245	0x3d60926e	0.054827146
246	0x3b98b9a4	0.004660802
247	0xbdb71ad3	-0.08940663
248	0x3d66b69e	0.0563265
249	0x3d0744c2	0.033024557
250	0x3c2c620a	0.010521421
251	0x3ad9753e	0.0016590727
252	0x3e032334	0.12806398
253	0xbdacbd3d	-0.08434532
254	0xbcf434eb	-0.02981039
255	0xbd0ee6f6	-0.03488823

encoder.4.bias f4 [32]
0	0xbc0e3174	-0.008678783
1	0xbc92d0a7	-0.017921759
2	0x3d44de59	0.04806361
3	0x3ca0c7b5	0.019626478
4	0x3e104924	0.14090401
5	0xbe25cc7c	-0.16191286
6	0x3dc2f602	0.095195785
7	0xbb57b0a2	-0.0032911678
8	0x3cf91241	0.030404212
9	0x3c8f2691	0.017474445
10	0xbe108890	-0.14114594
11	0xbd34d067	-0.04414406
12	0x3d7464cf	0.05966645
13	0xbd916225	-0.07098798
14	0x3ccde3f5	0.025133112
15	0x3cc63bb6	0.024198394
16	0xbe2fb221	-0.17157795
17	0x3d23b5e7	0.039968397
18	0x3c416a57	0.011805139
19	0x3dec744a	0.11545618
20	0xbd29470a	-0.041327514
21	0x3ca921e4	0.020646043
22	0x3c220dfa	0.009891028
23	0xbcad7d98	-0.021178052
24	0x3db4985e	0.08818124
25	0x3df583c4	0.11988023
26	0x3d8266f0	0.0636729
27	0xbdf8c7c1	-0.12147475
28	0x3dc59245	0.09647039
29	0x3e0c0169	0.13672413
30	0x3d26b951	0.040704075
31	0x3dd7c1d6	0.10535018

decoder.0.weight f4 [64, 32]
0	0x3e2469e3	0.16056018
1	0x3e8f2df5	0.2796475
2	0xbe83fb8b	-0.2577785
3	0x3e33cac3	0.17557816
4	0xbe642863	-0.22281031
5	0xbc895ee6	-0.016768884
6	0x3dab64ce	0.08368836
7	0x3e36cf65	0.17852552
8	0x3ccfde78	0.025374636
9	0xbd17554f	-0.03694659
10	0xbdd8c568	-0.10584527
11	0x3de71c67	0.11284714
12	0x3d00b73e	0.031424753
13	0x3d90b65e	0.07066034
14	0xba27c292	-0.00063995377
15	0x3dafea6d	0.08589635
16	0x3de26b6c	0.11055645
17	0x3e9c9e39	0.30589464
18	0xbdaf3096	-0.08554189
19	0x3d9ebcb3	0.07750835
20	0x3dd8cfe4	0.10586527
21	0x3bbc1c49	0.0057406765
22	0xbdc6839a	-0.0969307
23	0xbe341b9d	-0.17588659
24	0x3e317a2e	0.17331764
25	0x3d4cb3f1	0.049976293
26	0xbe33ae77	-0.17547022
27	0xbc4cbce2	-0.012496205
28	0x3de5457c	0.11194894
29	0xbe08ffa1	-0.13378765
30	0xbe283cf6	-0.16429505
31	0xbdde7b4c	-0.10863361
32	0xbdac3c0a	-0.08409889
33	0x3df850bc	0.12124774
34	0x3e862794	0.2620207
35	0xbe21224b	-0.15735738
36	0xbd8b1631	-0.06791342
37	0xbe735e71	-0.23766495
38	0x3e37085b	0.17874281
39	0xbcb35435	-0.021890739
40	0xbcb6ab15	-0.022298375
41	0xbc90a1c4	-0.01765526
42	0x3e0cada1	0.13738109
43	0x3d4b469c	0.049627885
44	0x3e36c155	0.17847188
45	0x3c2125a8	0.009835638
46	0x3c105691	0.008809702
47	0xbd3de926	-0.046364926
48	0xbd418d66	-0.04725399
49	0xbcde5a7a	-0.027142752
50	0xbe8499f1	-0.25898698
51	0x3e9d03db	0.30667004
52	0xbe77e15f	-0.24207066
53	0x3cc5123f	0.024056552
54	0x3d5ec4dd	0.054386962
55	0x3e297967	0.16550218
56	0xbea48c08	-0.32138085
57	0x3d928fdd	0.07156346
58	0xbe8a5257	-0.27015945
59	0x3d42e675	0.047583062
60	0xbd1a18c4	-0.037621275
61	0x3e00e03a	0.12585536
62	0x3dc75614	0.09733215
63	0xbd9707a4	-0.07374504
64	0xbd4e81e4	-0.050416842
65	0xbd8a7b18	-0.067617595
66	0xbdd04505	-0.101694144
67	0x3c9d5874	0.019207217
68	0xbc8b1c47	-0.016981257
69	0xbdffdbd4	-0.12493101
70	0x3d242559	0.04007468
71	0x3dd71251	0.105015405
72	0xbe2f6c15	-0.17131074
73	0x3d662c65	0.05619468
74	0xbdb367b9	-0.08760018
75	0x3dd4517e	0.10367106
76	0xbe171cd3	-0.1475709
77	0x3df4eb1e	0.119589075
78	0x3e1105b3	0.1416233
79	0xbe15a455	-0.14613469
80	0xbdc0ab35	-0.09407655
81	0xbe37c7ca	-0.17947307
82	0x3a6a2de1	0.0008933228
83	0x3dd113fd	0.102088906
84	0xbe07025b	-0.13184492
85	0xbd2ef9d4	-0.042718723
86	0xbe0a3a7b	-0.13498871
87	0xbd3a04d2	-0.045414753
88	0xbdc752fc	-0.09732625
89	0xbd2a7b93	-0.041621756
90	0xbd8a6dec	-0.06759247
91	0xbe239787	-0.15975772
92	0xbc7977a2	-0.015226277
93	0xbdeef1f9	-0.11667246
94	0x3e01908f	0.12652801
95	0x3d4d89bc	0.05018018
96	0xbdb830fc	-0.08993718
97	0x3bb46bcf	0.005506016
98	0xbe7d86fa	-0.2475852
99	0xbdaa58cb	-0.08317717
100	0xbe1710d1	-0.14752509
101	0x3e9c9382	0.3058129
102	0xbde07e12	-0.10961546
103	0x3e325ab0	0.17417407
104	0x3b9b7a32	0.0047447914
105	0xbe169548	-0.14705384
106	0x3e20e941	0.1571398
107	0x3e3fd99f	0.1873536
108	0x3e61158b	0.21980874
109	0x3e23a9e8	0.15982783
110	0x3ddabd57	0.10680645
111	0x3e154dc1	0.14580442
112	0x3d46426e	0.048403196
113	0xbccbeb63	-0.024892515
114	0xbdc1f180	-0.094698906
115	0xbe30ae8f	-0.17254089
116	0x3e1d8154	0.15381366
117	0xbe106989	-0.14102758
118	0x3d7639aa	0.060113586
119	0x3d9b9edd	0.0759866
120	0x3db71648	0.08939797
121	0x3d80bfbd	0.06286571
122	0xbd854f89	-0.06509311
123	0xbdfbfd0c	-0.12304124
124	0x3e37fe2c	0.17968053
125	0x3d2b8e43	0.04188372
126	0xbd8ed54d	-0.06974278
127	0x3dd50dfb	0.10403057
128	0xbd8affdb	-0.06787082
129	0x3cc068d9	0.023487495
130	0xbca23e6b	-0.019805154
131	0xbd46267e	-0.048376553
132	0xbc09f1e5	-0.008419489
133	0x3e208b82	0.15678218
134	0x3e5c63dc	0.21522468
135	0x3d2c02d1	0.041994873
136	0x3e008c21	0.12553455
137	0x3ea0fdf6	0.31443757
138	0x3e23084a	0.15921131
139	0x3df73871	0.12071312
140	0xbe3e3b06	-0.18577203
141	0xbd33de2a	-0.043913044
142	0xbd576354	-0.05258496
143	0x3e70c1d8	0.23511446
144	0xbd8ab3b8	-0.0677256
145	0x3ee0105a	0.43762475
146	0xbd25f553	-0.040517163
147	0xbc7c66d4	-0.0154053755
148	0x3da80cf9	0.08205599
149	0xbe16b343	-0.1471682
150	0xbe189f98	-0.1490463
151	0x3d26a730	0.040686786
152	0xbd861d27	-0.06548529
153	0xbc040f19	-0.00806024
154	0xbd8162d1	-0.06317676
155	0x3e1c2950	0.15250134
156	0xbe27868f	-0.16359924
157	0x3d4aae39	0.049482558
158	0x3c8c0bdb	0.017095497
159	0xbe3aa8ad	-0.18228407
160	0xbd2e6900	-0.042580605
161	0xbdb20bc3	-0.086936496
162	0xbafd7470	-0.0019337069
163	0xbd16582c	-0.03670518
164	0xbc696270	-0.014244661
165	0xbd80d907	-0.06291395
166	0xbe06e730	-0.13174129
167	0xbe1dc6cc	-0.15407866
168	0xbe31391d	-0.17306943
169	0x3e109a65	0.14121397
170	0xbd9c580e	-0.076339826
171	0x3b066538	0.0020507108
172	0xbddc4769	-0.10755808
173	0xbdd531d1	-0.10409892
174	0x3da9e1de	0.08295034
175	0xbe13c627	-0.14431058
176	0xbe2ae68d	-0.1668951
177	0x3e117e0f	0.14208244
178	0xbe029ac8	-0.12754357
179	0x3d1fc9d8	0.039010853
180	0xbe2485d2	-0.16066673
181	0x3ccdb838	0.025112256
182	0xbc994d88	-0.018713728
183	0xbd6ccc16	-0.05781182
184	0x3e09c5b5	0.13454325
185	0x3c9386e0	0.01800865
186	0xbe098af5	-0.13431914
187	0x3c695d80	0.014243484
188	0xbdab9b10	-0.08379185
189	0xbe15ed66	-0.14641342
190	0x3d6176e4	0.055045024
191	0x3cc7ae78	0.024375185
192	0x3e025579	0.12727918
193	0x3e4d4940	0.20047474
194	0x3cc8819e	0.024475869
195	0x3de52206	0.1118813
196	0xbda6fe9a	-0.0815403
197	0x3dd26f1d	0.102750994
198	0x3db95160	0.09048724
199	0x3e79af16	0.24383196
200	0x3e19fc90	0.15037751
201	0x3d845b0e	0.0646268
202	0xbd7dbce2	-0.06194771
203	0xbd06379d	-0.03276788
204	0xbe2b94b6	-0.16755947
205	0x3e1453b8	0.14485061
206	0xbdfe63e9	-0.124214
207	0x3de019c2	0.10942413
208	0x3e2b2ac8	0.16715539
209	0xbe38d337	-0.18049322
210	0xbd3320db	-0.043732505
211	0x3ca1cff2	0.019752476
212	0xbd757e21	-0.05993474
213	0x3e18aa1f	0.14908646
214	0xbde2da90	-0.11076844
215	0xbcc757dd	-0.024333889
216	0xbd877301	-0.06613732
217	0xbce1c241	-0.027558448
218	0x3dd5841c	0.104255885
219	0x3e5d5837	0.21615683
220	0x3dc02ef2	0.09383954
221	0xbcf13f85	-0.029449234
222	0x3cf92487	0.030412925
223	0xbd08142c	-0.033222362
224	0x3c35c2f8	0.011093847
225	0xbd95c2a0	-0.073125124
226	0xbdcff70f	-0.101545446
227	0x3d41d4c0	0.047322035
228	0x3d57f567	0.05272427
229	0xbe1c921e	-0.15290114
230	0x3e8fbb99	0.28072813
231	0xbd24bc8b	-0.04021887
232	0x3e075023	0.13214163
233	0xbdf49137	-0.1194176
234	0x3d77fcc3	0.060543787
235	0x3d93052c	0.07178721
236	0x3e3ed03e	0.18634126
237	0xbe24b3fd	-0.16084285
238	0xbdefd982	-0.11711408
239	0x3cdb20bb	0.026749006
240	0xbdd32ba1	-0.10311056
241	0xbd5d5b7f	-0.054042336
242	0x3e4c2835	0.19937213
243	0x3e7defa7	0.24798451
244	0x3e3ad303	0.18244557
245	0x3e2cf78f	0.16891311
246	0xbd8eb0af	-0.069672935
247	0x3c82c6ff	0.01596403
248	0x3e6e66b2	0.23281363
249	0xbdfce134	-0.123476416
250	0xbe223e1b	-0.15844004
251	0x3db17016	0.08663957
252	0xbd37a1b2	-0.04483194
253	0xbdb53cc3	-0.0884948
254	0x3da68c4c	0.08132228
255	0x3cb3c27f	0.021943329

decoder.0.bias f4 [64]
0	0x3e47ddf5	0.19518264
1	0x3e716d41	0.23576833
2	0xbdc09351	-0.094030984
3	0xbe9a1ea0	-0.3010149
4	0xbe8b2d94	-0.2718321
5	0xbc90d230	-0.01767835
6	0x3edc1d51	0.42991117
7	0x3e9bd778	0.30437827
8	0x3f7e0788	0.9923024
9	0x3ea9727d	0.3309516
10	0x3d473fb0	0.04864472
11	0xbeb072dd	-0.34462634
12	0xbe357819	-0.17721595
13	0x3ed8ea2f	0.42366168
14	0xbe2a9104	-0.16656882
15	0x3ec7b769	0.39007118
16	0x3ec237c8	0.37933183
17	0xbd6fe302	-0.0585661
18	0xbde36bc1	-0.11104537
19	0x3cdb7f62	0.02679414
20	0xbc04474c	-0.008073639
21	0xbe4e48d4	-0.20144969
22	0x3ee05d47	0.43821165
23	0xbf18231d	-0.5942858
24	0x3f22a22b	0.635287
25	0x3ee2fc5d	0.44333163
26	0xbf1130dd	-0.56715184
27	0x3e05f727	0.13082562
28	0xbeb74043	-0.35791215
29	0xbf155745	-0.5833629
30	0xbdb33bba	-0.08751626
31	0xbd123542	-0.03569532
32	0xbd9b3672	-0.07578744
33	0x3d723bef	0.05913919
34	0xbdd8c396	-0.1058418
35	0xbd225c71	-0.03963894
36	0x3ec578d9	0.38568762
37	0x3df30d84	0.11867812
38	0xbd070891	-0.032967154
39	0x3df17113	0.11789145
40	0x3e74f1ee	0.23920414
41	0xbd38c8f0	-0.045113504
42	0xbee332cf	-0.443747
43	0xbe76cb8c	-0.24101084
44	0x3d392a85	0.045206565
45	0xbc9e1380	-0.019296408
46	0x3e71e771	0.23623444
47	0x3e94a5e1	0.29032806
48	0x3e8dc44b	0.27688822
49	0x3f5c4bb8	0.8605304
50	0xbd803e59	-0.06261892
51	0x3e11ce27	0.14238797
52	0x3e26dd85	0.1629544
53	0xbe5df44b	-0.21675222
54	0xbe811343	-0.25210008
55	0xbdf49335	-0.1194214
56	0xbe25a86d	-0.1617753
57	0x3ea3cccc	0.31992185
58	0xbce574fb	-0.028009882
59	0xbe331883	-0.17489819
60	0xbdd1b48d	-0.102395155
61	0x3d612130	0.05496329
62	0x3dce65f5	0.100780405
63	0x3995e014	0.00028586446

decoder.2.weight f4 [128, 64]
0	0x3c717911	0.014738337
1	0x3e503831	0.20333935
2	0x3ccf7f18	0.025329158
3	0xbe194714	-0.1496852
4	0x3e1a8e13	0.1509326
5	0x3cca4858	0.0246927
6	0xbb1ca992	-0.0023904783
7	0xbdffc2bb	-0.12488314
8	0xbe6e7d3e	-0.23289964
9	0x3e27a53c	0.16371626
10	0xbd62963c	-0.055319056
11	0xbdb0df29	-0.086363144
12	0x3da2e4b4	0.07953778
13	0xbcb1cf35	-0.02170525
14	0x3db82a71	0.0899247
15	0xbdbd61ad	-0.09247146
16	0x3dc098dd	0.09404156
17	0x3dfcf3e3	0.12351205
18	0xbd394bbe	-0.04523825
19	0x3df3d870	0.119065166
20	0x3ea2b6de	0.31780142
21	0x3e22663b	0.1585931
22	0x3e0aa1a5	0.13538225
23	0xbdc50f34	-0.096220404
24	0xbd877dee	-0.06615816
25	0x3cf11c4b	0.029432436
26	0xbd38e373	-0.045138787
27	0x3df0c96c	0.11757168
28	0x3dc67859	0.09690923
29	0xbd0a8256	-0.033815704
30	0x3db9a1da	0.09064074
31	0xbd8b9925	-0.068163194
32	0xbe2beb43	-0.16788964
33	0x3e1534bd	0.145709
34	0x3dd47ca0	0.10375333
35	0xbcfa2b56	-0.030538242
36	0xbd8398a7	-0.064256005
37	0x3dc289d6	0.09498946
38	0xbd399f9f	-0.045318242
39	0xbe18e823	-0.14932303
40	0xbd94b249	-0.07260568
41	0xbcad1142	-0.021126393
42	0xbdbf65ce	-0.093455896
43	0x3d913e69	0.07091982
44	0xbe086d21	-0.1332288
45	0x3d9bbcc2	0.07604362
46	0xbdf6076c	-0.12013134
47	0xbd41cf0a	-0.04731659
48	0xbda95aae	-0.08269249
49	0xbdb35abb	-0.0875754
50	0x3e037045	0.12835796
51	0xbd79304f	-0.060837086
52	0xbd8377e6	-0.06419353
53	0x3c511e15	0.01276352
54	0xbe17d413	-0.14826994
55	0xbbb15e04	-0.005412819
56	0x3dd5877e	0.10426234
57	0xbd92fa36	-0.0717663
58	0xbd5e14c7	-0.054219034
59	0x3db25ec3	0.087094806
60	0x3de1a2d4	0.11017385
61	0x3e386021	0.1800542
62	0x3bcb78bb	0.0062094606
63	0x3e44e70f	0.19228767
64	0x3d1221db	0.03567682
65	0x3da53c17	0.08068102
66	0x3d5b11dc	0.05348383
67	0xbcf11032	-0.029426668
68	0x3d558b9b	0.05213509
69	0xbddb4a94	-0.10707584
70	0xbd32b0b2	-0.04362554
71	0xbe56c701	-0.20974351
72	0x3c80aed1	0.015708359
73	0x3e589711	0.21151377
74	0x3ecef9d6	0.40424985
75	0x3bdcb378	0.0067352615
76	0xbd185167	-0.037187006
77	0x3d9180c8	0.07104641
78	0x3e29082d	0.16507025
79	0xbde8daef	-0.11369883
80	0x3da59afc	0.080862015
81	0x3d79f6ed	0.061026502
82	0xbca3d6fa	-0.01999997
83	0xbc898868	-0.016788676
84	0x3d60e1e9	0.054902945
85	0xbd1303e9	-0.0358924
86	0x3e69cfcb	0.22833173
87	0x3cad8b73	0.021184659
88	0xbcc01ba8	-0.023450688
89	0xbc11d773	-0.008901465
90	0xbe0a25ba	-0.13490954
91	0x3d00a918	0.03141126
92	0xbe482c6c	-0.19548196
93	0x3e375b01	0.17905809
94	0x3d004eec	0.031325266
95	0x3d9d41a6	0.07678537
96	0x3e0c2b48	0.13688385
97	0x3c513f76	0.012771478
98	0xbe1c8596	-0.15285334
99	0x3dbf0b71	0.09328354
100	0x3bb3dfac	0.0054893102
101	0xbd373d90	-0.044736445
102	0x3e06ce01	0.13164522
103	0xbcbe784b	-0.02325072
104	0xbe62596b	-0.22104423
105	0x3e1b63fd	0.15174861
106	0x3c8d6281	0.017258884
107	0x3d7dee6d	0.06199496
108	0xbc824373	-0.015901303
109	0xbe0ca68c	-0.13735408
110	0x3e4e0278	0.20118129
111	0xbdc98a7a	-0.098408654
112	0x3dddae29	0.10824234
113	0xbdb8fec4	-0.09032968
114	0xbe0953e4	-0.13410908
115	0x3db7a45c	0.08966896
116	0x3b75f8c7	0.0037532316
117	0xbd60e146	-0.054902337
118	0xbd94ecd0	-0.07271731
119	0xbd166f9d	-0.036727536
120	0x3df659c2	0.12028839
121	0xbda87c6f	-0.08226859
122	0xbd81c353	-0.06336083
123	0xbe0b19df	-0.13584088
124	0x3d777190	0.060411036
125	0x3d68df63	0.056853663
126	0x3bd33a23	0.0064461394
127	0x3cb669a7	0.022267176
128	0xbd5d151f	-0.05397522
129	0x3d907448	0.07053429
130	0x3deaa3aa	0.11456998
131	0xbe2e7418	-0.17036474
132	0xbdaaf5b5	-0.08347646
133	0x3ddc89d2	0.10768475
134	0x3e05091c	0.12991756
135	0xbdefb921	-0.117052324
136	0xbd49eb05	-0.049296398
137	0xbd875a98	-0.06609076
138	0xbd5095c7	-0.05092409
139	0xbe9b94af	-0.30386874
140	0x3d5a0d36	0.053235255
141	0xbdb351d3	-0.08755841
142	0x3e143e92	0.14476994
143	0x3ce3b43e	0.027795907
144	0x3e0fdd80	0.1404934
145	0x3d7d64c0	0.06186366
146	0xbd6c9d4a	-0.05776719
147	0x3e2291a4	0.1587587
148	0x3eaef0b2	0.3416801
149	0xbd2f03ff	-0.04272842
150	0xbc560edd	-0.013065067
151	0xbe310884	-0.17288405
152	0xbe33eb7d	-0.175703
153	0xbca220db	-0.019791057
154	0xbdaf1739	-0.08549351
155	0xbdb681cb	-0.08911475
156	0x3d0c258e	0.034215502
157	0x3d9ebe82	0.0775118
158	0x3db56848	0.08857781
159	0xbe06b589	-0.13155188
160	0xbe1a3f6c	-0.15063256
161	0xbda7673d	-0.08173988
162	0xbe5532b0	-0.20820117
163	0xbdae1f02	-0.08502008
164	0x3e081792	0.13290241
165	0x3d8343f5	0.06409446
166	0x3e2baaa6	0.16764316
167	0xbe41d3b3	-0.18928413
168	0xbb8ceb92	-0.004300543
169	0x3d831be9	0.06401808
170	0x3dcdb226	0.10043745
171	0x3e075b1f	0.13218354
172	0x3cd01727	0.025401665
173	0xba9315b8	-0.0011221683
174	0xbc1c7634	-0.009549666
175	0xbdbd3e6a	-0.0924042
176	0x3e5591a5	0.2085634
177	0xbc94eb16	-0.018178504
178	0x3ddd5c22	0.108085886
179	0x3e909c4a	0.2824424
180	0xbd83ee66	-0.06441955
181	0x3cfa5945	0.030560145
182	0x3e00b816	0.12570223
183	0x3c6effb2	0.01458733
184	0xbc50c300	-0.012741804
185	0x3e2782dd	0.16358514
186	0x3df2ade2	0.11849572
187	0x3d9abe8e	0.07555877
188	0xbd107c61	-0.035274867
189	0xb977e1ed	-0.0002363992
190	0xbdace0df	-0.08441328
191	0x3d179e6b	0.037016314
192	0x3dd5d169	0.104403324
193	0x3d8d4314	0.0689756
194	0x3db9a353	0.09064355
195	0x3df0f044	0.11764577
196	0x3e0f2764	0.1397987
197	0xbda18026	-0.078857705
198	0x3da88ac3	0.08229592
199	0xbe8fd745	-0.28093925
200	0xbd002a4c	-0.031290337
201	0xbd9f1a06	-0.077686355
202	0xbdbc5c4f	-0.09197294
203	0x3dba2e93	0.090909146
204	0xbd21a034	-0.039459422
205	0x3d3e48e1	0.04645622
206	0xbc8e4c1d	-0.017370278
207	0x3e370dd7	0.17876373
208	0xbd8e7ffb	-0.06958004
209	0xbe5617bf	-0.20907496
210	0x3dbb1cd9	0.09136362
211	0x3e6bac37	0.23014913
212	0x3e01fb0d	0.12693425
213	0xbe8db6f0	-0.27678633
214	0x3d50d7ce	0.050987057
215	0x3c6fa1e4	0.014626
216	0xbe01b2c3	-0.12665848
217	0x3eb3c501	0.3511124
218	0x3e70f5df	0.23531292
219	0xbdcdc1fa	-0.10046764
220	0x3c70cf8d	0.014697921
221	0xbdec26f7	-0.115308695
222	0xbdd9223c	-0.10602233
223	0xbdf797da	-0.1208951
224	0xbc677e6a	-0.014129261
225	0xbe3a414d	-0.18188973
226	0x3da29ace	0.07939683
227	0x3d89468f	0.06702911
228	0xbd34b03e	-0.04411339
229	0xbc423ec0	-0.011855781
230	0xbd2fda88	-0.042933017
231	0xbd4145a4	-0.047185555
232	0x3bec6581	0.0072142486
233	0xbd962115	-0.07330529
234	0x3d4289b1	0.047494594
235	0x3dbaa7e3	0.09114053
236	0xbcefef9d	-0.029289061
237	0x3e931d95	0.28733507
238	0xbdba8ce0	-0.09108901
239	0x3cd3384c	0.02578368
240	0x3d2d88c6	0.042366765
241	0xbd124879	-0.035713647
242	0xbe2e012a	-0.16992632
243	0xbdbbc65d	-0.09168694
244	0xbd8057a6	-0.062667176
245	0xbd09fd21	-0.03368867
246	0x3d8d486f	0.06898581
247	0xbdb90073	-0.09033289
248	0x3dc59a26	0.09648542
249	0xbe6e1c05	-0.23252876
250	0x3d810c0d	0.06301127
251	0x3d094813	0.033516
252	0x3e4960ce	0.19665834
253	0xbdd2d3e4	-0.10294321
254	0xbdcec5a4	-0.10096291
255	0x3e21a6d5	0.15786298

decoder.2.bias f4 [128]
0	0xbe4e6c73	-0.20158558
1	0x3d57f880	0.052727222
2	0xbdb87452	-0.09006561
3	0x3e30cebb	0.17266361
4	0xbdba2821	-0.09089685
5	0x3e28f805	0.16500862
6	0xbd87d2fb	-0.06632038
7	0x3da6fe33	0.081539534
8	0xbc501584	-0.012700442
9	0x3d9912de	0.07474302
10	0x3e5403ae	0.20704529
11	0xbddd2442	-0.10797931
12	0xbe8c31e6	-0.2738182
13	0xbef2015a	-0.47266656
14	0xbdd465ae	-0.10370956
15	0xbe6cc052	-0.2312024
16	0x3ebeb8c4	0.3725034
17	0x3e0b442d	0.13600226
18	0xbe9d665e	-0.30742162
19	0x3f40c028	0.7529321
20	0xbeb9929c	-0.36244667
21	0xbd32e0ce	-0.04367142
22	0x3e96f8cb	0.2948669
23	0xbdf9d56e	-0.121989116
24	0x3d8a77ec	0.067611545
25	0x3f36b285	0.7136615
26	0x3ea25be1	0.31710723
27	0xbdd588fe	-0.1042652
28	0x3d851441	0.06498004
29	0x3ebed714	0.37273467
30	0x3d44ac1e	0.048015706
31	0x3de60484	0.1123133
32	0x3e9dea65	0.3084289
33	0xbdea6ad1	-0.11446155
34	0xbf08e5a9	-0.53475434
35	0xbdd37580	-0.10325146
36	0x3f1e0cf6	0.61738527
37	0xbc5477f9	-0.012968057
38	0x3d1751c3	0.03694321
39	0x3e1b2d73	0.15154056
40	0x3e8784d7	0.26468536
41	0xbe2de2a5	-0.1698099
42	0xbdfb25b9	-0.122630544
43	0xbf07a20e	-0.5298165
44	0xbde9fd76	-0.11425297
45	0x3e95c3c0	0.29250908
46	0xbf017dbe	-0.5058249
47	0xbeb1cfe8	-0.34728932
48	0x3f081d0a	0.5316931
49	0xbd81c036	-0.063354895
50	0x3e663d59	0.2248434
51	0x3e2eb1ac	0.17059964
52	0xbe7b746d	-0.24556132
53	0x3f332f4e	0.69994056
54	0xbe712010	-0.23547387
55	0x3d8f0b69	0.06984598
56	0x3e97425f	0.29542825
57	0x3f131763	0.5745756
58	0xbea4819e	-0.3213014
59	0xbdc2bd04	-0.09508708
60	0xbeb7dfec	-0.35913026
61	0x3e10c402	0.14137271
62	0xbe1703ef	-0.14747594
63	0x3d92eac5	0.07173685
64	0xbdd79205	-0.10525898
65	0xbf5ea898	-0.86976004
66	0x3f0f0295	0.55863315
67	0x3d1b1514	0.0378619
68	0x3e5b60b2	0.21423605
69	0x3da95595	0.082682766
70	0x3ed57957	0.41694137
71	0x3d905ceb	0.07048973
72	0xbe31770e	-0.17330572
73	0x3e8592f1	0.2608867
74	0x3db75bd3	0.08953061
75	0x3f09740f	0.53692716
76	0x3d8adfb9	0.06780953
77	0xbe038ec3	-0.12847428
78	0x3f14e76d	0.5816563
79	0x3f60de59	0.87839276
80	0xbeaaa980	-0.33332443
81	0x3d0d87b8	0.03455326
82	0xbe54f970	-0.20798278
83	0x3ea7d9a2	0.32783228
84	0x3f1acdcd	0.6047028
85	0x3dbc7f22	0.09203936
86	0x3ecee25f	0.40407082
87	0xbe069095	-0.13141091
88	0xbda1386e	-0.07872091
89	0xbf75a440	-0.9595375
90	0x3ef62ee0	0.48082638
91	0x3c0ca3c5	0.008583968
92	0x3f498d9f	0.7873172
93	0x3f3e40dc	0.7431772
94	0x3eacb6fc	0.33733356
95	0xbd54c62e	-0.05194681
96	0xbecfc3e0	-0.40579128
97	0xbd8cb220	-0.06869912
98	0xbf46ede1	-0.77706724
99	0x3e0ac311	0.13550974
100	0x3db74330	0.08948362
101	0xbddfa8b3	-0.10920849
102	0xbf21469a	-0.62998354
103	0x3bc1b94c	0.0059119817
104	0x3d69f4dd	0.057118285
105	0x3eec536f	0.46157405
106	0x3c3896f5	0.01126646
107	0x3f86ff1a	1.0546601
108	0xbf341fad	-0.70360833
109	0xbc847527	-0.016169144
110	0xbd27670b	-0.040869754
111	0xbe0d9c17	-0.13829075
112	0x3da43d09	0.08019454
113	0xbcc5d8ef	-0.024151294
114	0x3eb8c0c6	0.36084574
115	0x3bce0956	0.006287734
116	0x3d8fb1cc	0.07016334
117	0x3e1cd71e	0.15316436
118	0x3ec3e6f2	0.38262135
119	0x3ebdbeae	0.3705954
120	0x3f46d2c6	0.77665365
121	0x3f1e9c7d	0.6195753
122	0x3d0db39d	0.03459512
123	0x3d09dfec	0.033660814
124	0xbdcb1c87	-0.099175505
125	0x3dfefb59	0.124502845
126	0xbd5f31d4	-0.05449088
127	0xbecaa430	-0.3957839
